models/new_model_test_1/new_model_test_1.pt (torch, 5244 bytes, 11 tensors)

F1.net.0.weight f4 [20, 7]
00000000: 709d 50bd dbcc 3c3e e3e6 b7be 959d c7be
00000010: e339 7dbe 8d14 29bc e154 c9bd 2cf4 963e
00000020: 7209 0d3c 24e4 c23d a331 7cbe 9b65 f5bd
00000030: e053 fcbe 46f9 8abe 7050 d1be 8cd1 64be
00000040: 2f26 d4bd b0f7 533e 3943 01bf 43d1 3ebe
00000050: 3bfe f7bd ae7b 043e f7f3 7cbe f96e c93d
00000060: f2ea 60ba 50e9 2abe 2b3a cd3e 88b1 13bf
00000070: 79b5 a9be e16a 4abe 79a1 76be 3a93 ed3e
00000080: 9d16 59be b179 17bd 3c20 84be ab92 d8be
00000090: 9b14 95be 0d04 833e c6f3 9a3e dd63 593e
000000a0: 8729 1d3e 84d0 44be ce60 233d 6ef6 b0be
000000b0: bb25 98be ac81 a1be b93b 373e d14b cf3d
000000c0: 0396 57be 890a 9f3d 6467 883e 0f20 ef3e
000000d0: e120 8d3e 58ea 1d3e c0f5 c13e 48ba 0abe
000000e0: 78f3 a83d 18b9 7dbe 2ee5 7fbe 0ce4 a3be
000000f0: 9b5b db3d 1580 e03c 0dd8 88be 37f7 f6bc
00000100: 07ae 7f3d c3a5 44be f348 173e c021 af3d
00000110: d714 bc3e 0d9a a73e f405 abbe 78f0 3fbe
00000120: 70a4 d83d 48a7 e03e 3f25 bb3e dfe6 ea3e
00000130: e822 b63d 9ce0 efbe 9477 cfbd d8a9 c0be
00000140: d05e 5bbe 9d7a a63e 768c d93e 73c3 d6be
00000150: dcbe 9b3e e783 1c3e 965b 2f3e 6465 55be
00000160: 1245 c83e 02d0 83be 311f ca3e 5b76 b83e
00000170: 9b16 cc3e 12f5 9e3e 827a d5be 58a3 90bd
00000180: 1175 163e 2a56 883e c3de 81be 8e9e 17be
00000190: 4a24 cb3e fdb7 073e b385 67be 7246 5ebe
000001a0: d2bf cdbe b12c 7f3e d895 28bd 0ba5 11bd
000001b0: f7cc d7bb d2c5 983e fce3 0dbe 972a f33e
000001c0: 28f4 29be c678 cb3e 6f67 a53e 14e6 e6be
000001d0: f1c3 fdbd 5f23 ebbd 1a36 543d 8251 02be
000001e0: f988 65bd 08ee 46be f729 43bd 50e7 e43d
000001f0: 7ad1 67be 7f4b a5be e8f3 1e3e 9722 3b3d
00000200: fae1 f03d 8893 a6be 81f6 1b3e e576 893d
00000210: 13b0 40bb 3ab7 3fbe 0969 163e 01a4 53be
00000220: 4407 aebd f49e 3bbe 0229 9ebc c0e1 b83d
-0.050931394 0.18437521 -0.3591834 -0.38987413 -0.24729113 -0.010319841 -0.098306425 0.29483163
0.008608209 0.095161706 -0.2462831 -0.1198227 -0.49282742 -0.27143306 -0.4088168 -0.22345561
-0.103588454 0.20699954 -0.504932 -0.18634515 -0.121090375 0.12937805 -0.2470244 0.098356195
-0.00085799315 -0.16690564 0.4008344 -0.57692766 -0.33146265 -0.19767334 -0.24085034 0.46401387
-0.21200033 -0.03698129 -0.25805843 -0.422994 -0.29117283 0.25589028 0.3026411 0.21229501
0.15347873 -0.19220167 0.039887242 -0.3456301 -0.29716286 -0.31544244 0.17893876 0.10121883
-0.21053319 0.07765681 0.2664138 0.46704146 0.27564147 0.15421426 0.37882805 -0.13547623
0.08249563 -0.24777639 -0.24989769 -0.32009923 0.10710832 0.027404824 -0.26727334 -0.030147178
0.062421825 -0.19203858 0.14773922 0.08551359 0.3673465 0.3273472 -0.3340298 -0.18744075
0.10578239 0.43877625 0.36551854 0.45879266 0.088933766 -0.4685105 -0.101302296 -0.3762958
-0.21422887 0.32515422 0.42489976 -0.4194599 0.30419052 0.15284692 0.17124781 -0.20839459
0.39115196 -0.25744635 0.39476922 0.36027798 0.39860997 0.3104635 -0.4169503 -0.07062405
0.14693095 0.26628238 -0.25365266 -0.14806578 0.39676124 0.1325378 -0.22609596 -0.2170656
-0.4018541 0.24919392 -0.041158527 -0.035557788 -0.006585713 0.29838425 -0.138565 0.4749343
-0.16597044 0.3974058 0.32305476 -0.4509741 -0.123908885 -0.11481356 0.051809408 -0.12726405
-0.05603883 -0.19426739 -0.047647443 0.11176932 -0.22638503 -0.3228416 0.1552273 0.045687284
0.117618516 -0.32534432 0.15230753 0.067121305 -0.0029401823 -0.18722239 0.14688505 -0.20668031
-0.084974796 -0.18322355 -0.019306663 0.090274334

F1.net.0.bias f4 [20]
00000000: 7799 bd3e d3c4 863e 525f b53e 230c f63c
00000010: 28d3 b8be ae0f 51be 9a90 923e 76ea 23bc
00000020: 3ef4 1ebe 1424 9fbe 44ef bfbe ab7d b2be
00000030: d37b c6bd 5b45 253e 390c 713e 4aa9 babe
00000040: e68b 853e f20d a5be e06d e4bd f211 ebbd
0.37031147 0.2632204 0.35424286 0.030035084 -0.360986 -0.20416138 0.28625947 -0.01000463
-0.15522859 -0.31082213 -0.37487233 -0.34861502 -0.09691586 0.16139738 0.23539819 -0.36457282
0.26083297 -0.32237202 -0.111537695 -0.11478032

F1.net.2.weight f4 [2, 20]
00000000: 4cb1 c0bd 8b6d d3bd b4d3 7cbe ed64 dcbd
00000010: 2d6a f7bb df97 563d 4671 17be fb17 643e
00000020: f203 47be 25da 203d e52c 833e 9325 88bd
00000030: b046 703e 979b 623d e8cd 7dbe 4155 383e
00000040: f40e 9cbd dff3 b0bd 7567 3b3e c2e8 1cbe
00000050: 954a 8dbc 8300 f3bd 131c 0f3e 0f43 693e
00000060: 4396 283e f51a 173e 5e95 b1bd 9e2e 953d
00000070: 37cc 2bbe ebcf 2e3e f74f 7a3e aded 493e
00000080: e351 6dbe 051d 5fbd c98e 34be 4918 d5bd
00000090: 707e 4bbe b8ec a83d a9b3 1fbe b4de 9b3c
-0.09408817 -0.10323628 -0.24690133 -0.107614376 -0.007550499 0.05239093 -0.14789304 0.22274773
-0.19435099 0.03927054 0.2562019 -0.06647792 0.23464465 0.055324163 -0.24785578 0.18001272
-0.076200396 -0.08640265 0.18301184 -0.15323165 -0.017247478 -0.11865332 0.13975553 0.22779487
0.1646357 0.14756377 -0.08671068 0.07284282 -0.1677712 0.17071502 0.24444567 0.19719572
-0.23175769 -0.054471035 -0.17632593 -0.10405023 -0.19872451 0.082482755 -0.15595879 0.019027092

F1.net.2.bias f4 [2]
00000000: d230 cdbc 8ef1 ea3d
-0.025047693 0.11471854

G1.b_coeff f4 [2, 2, 3]
00000000: c3c0 073d d824 3c3d 4fff 943c c7ae c33d
00000010: db9f c93d fe1a cf3d 2793 45bd 2f8a 64bd
00000020: 03c0 9abd 4148 95bc 54a6 d2bc 99ea 63bc
0.033142816 0.045933574 0.018188147 0.095548205 0.09844943 0.1011257 -0.04823604 -0.055795845
-0.075561546 -0.01822293 -0.025714077 -0.013910913

G1.alpha1 f4 [2, 2, 1]
00000000: dedd fb3d 4da9 21be 8a3f 3ebe a580 1bbd
0.12298177 -0.1578724 -0.18578926 -0.03796448

G1.alpha2 f4 [2, 2, 1]
00000000: 81d6 b93d e4c8 1ebe 5133 ea3d 06cb 00bd
0.090741165 -0.15506321 0.11435569 -0.03144362

F2.net.0.weight f4 [20, 2]
00000000: 5d10 9cbe 80a7 913d dcfd 083f 7b97 38bf
00000010: 9110 103f 5cc1 25bf b31b 35bd 7cd8 2ebe
00000020: f4c0 a4be 444c c53c fe5a 453f 7e35 8dbe
00000030: 4cff abbe 2545 abbe 7d53 48bf 0e21 c03e
00000040: e488 e0be 1f0e cdbe 1704 e7be b795 f13e
00000050: 0f35 d93e 286c f43e ec1c 853e 9722 97be
00000060: d13d 25be e02a 863e 8ca9 333f 3733 f83d
00000070: ae2f c4be fedf c5be 5d7e 23bf f42f b13d
00000080: 7e2f acbe 31df 32bf 5ac8 283f 4207 06bf
00000090: 2280 95bc 95e4 783e bd4b 473c af30 d2be
-0.30481234 0.07112026 0.5351236 -0.7210614 0.5627528 -0.6474817 -0.04421587 -0.1707477
-0.32178462 0.024084218 0.7709197 -0.27579874 -0.33593214 -0.3345119 -0.78252393 0.3752522
-0.4385444 -0.40049836 -0.45120308 0.47184536 0.42423293 0.47738767 0.25998628 -0.29518577
-0.16136862 0.26204586 0.70180583 0.121191435 -0.38317627 -0.38647455 -0.6386469 0.086517245
-0.33629984 -0.69871813 0.6593071 -0.52354825 -0.018249575 0.24305947 0.0121640535 -0.41052768

F2.net.0.bias f4 [20]
00000000: 5596 0abf c41e 0b3f 5fa8 ab3d 2ef9 0b3f
00000010: c9f5 89be 2baf 3e3e 83a5 44be 6185 96ba
00000020: aaac cdbe 75ff 8a3e bbe0 443e c431 52bd
00000030: 5a0f fabd 5ef9 ecbe 4644 e63e 7751 0fbf
00000040: a281 843e 2879 8abe 41d1 9cbe cad1 263e
-0.5413564 0.5434382 0.083817236 0.54677093 -0.26945332 0.18621509 -0.19203763 -0.0011483842
-0.40170795 0.27148023 0.19226353 -0.05131699 -0.12209959 -0.46284002 0.44973963 -0.5598368
0.25880152 -0.2704556 -0.30628398 0.16290966

F2.net.2.weight f4 [2, 20]
00000000: ad9c d0bd 8898 223d 18b0 6f3d 60ce 3abe
00000010: 013e 3d3d 8c7a c73d 0d01 c23d 23d0 f3bd
00000020: 7680 2ebe 7140 78bd 9bf1 8c3d 75d8 53bc
00000030: 06ac bf3d 46cb 2f3e 2e78 0bbe 85fe 553c
00000040: 41af 913d 6596 433d 503f 0a3d b842 733c
00000050: f0e9 11be 3b9b 77bc b693 003e 0a7b 2c3e
00000060: 3344 293e 0a68 43bb 7427 0f3e 1d7e babd
00000070: 7cfb 1abe 041c 68be 8ad6 403e d4b5 393e
00000080: 2a80 fbbd f2ee f63d 098a 0b3e 5ba6 833e
00000090: 5322 283e ad8d 543e 3bbf 98bc 4871 e2bd
-0.101861335 0.039696246 0.058517545 -0.18242788 0.04620171 0.09740171 0.09472857 -0.11904933
-0.17041191 -0.06060833 0.0688202 -0.012930025 0.09358983 0.17167386 -0.13620064 0.0130611705
0.07113505 0.04775085 0.033751786 0.01484745 -0.14249396 -0.015112693 0.12556347 0.1684381
0.16529922 -0.002981665 0.13979894 -0.091060854 -0.15134996 -0.22666937 0.1883184 0.18135768
-0.12280305 0.12057294 0.13626875 0.25712857 0.16419344 0.2075717 -0.018645873 -0.11056763

F2.net.2.bias f4 [2]
00000000: 0623 2b3e 2e47 bc3d
0.16712579 0.09193264
