models/model_sens/model_sens.pt (torch, 5154 bytes, 11 tensors)

F1.net.0.weight f4 [20, 7]
00000000: 6422 ed3e 0809 bf3d 9d27 823e 3492 02bd
00000010: c179 44bf 7ac9 2d3e 12a4 2c3f 30d7 d73e
00000020: dbff 943c 4d81 8d3e 1faa 04bf 9513 03bd
00000030: 23ef 03be 6342 ecbc 51e3 1fbd 7bb2 1cbd
00000040: ea6c 043d a4a9 843e 1752 98bf 1cd0 28bd
00000050: 2dfc 683e 23d8 273f af46 ba3b ffbb 383f
00000060: eba2 12bf a818 e4bd f01b 293c a879 dabd
00000070: aa4d 6bbf 91b6 7dbc 3d55 54bf a5e7 ed3e
00000080: 77a3 ba3d 1f2d 9bbd 399b 153d a562 11bf
00000090: 87b7 c63a 547b e33d f6be a53f 21cf d4bd
000000a0: be69 d83d 7926 ddbd 61bb 65bf bde1 3dbe
000000b0: e588 78bf 4e5d 773e 5e9c 283f 0fe3 ee3c
000000c0: d6e9 b03b 5521 11bd 7d81 053d 7b36 863e
000000d0: dae0 903e f0aa 2dbf 9218 bc3d 4cfa 10bf
000000e0: 500a 9a3e cb79 69bc f01a b03d 0488 d1bf
000000f0: 9acd 0a3f 947b 43bc 684b 283d 1466 31be
00000100: 54bb 82bd 84b5 19be 5ed1 6b3e 2d77 b3bd
00000110: 19ab 0f3e 4820 bf3d e6e1 05bf bfb7 1fbe
00000120: 338e 86be efe9 1a3f 0cd7 143f 1025 493d
00000130: 308d adbc 246f cabe c468 b1bd a811 babe
00000140: 828a 7d3e 9205 463e 74e2 1e3e df5e 47bd
00000150: 8b88 8e3d 9fb6 c1bd 1fc1 67bd 9209 253d
00000160: 5da1 873f 20b7 c4bd e7a7 0bbe 5036 023f
00000170: e708 083e 015f e33e a5b8 1bbf d2f6 d7be
00000180: bdb0 3d3e d62a 1bbb 49e7 0fbe e35b e7be
00000190: da21 ad3e f44b 833d 549f 8bbd 0155 5abe
000001a0: 0711 fb3e 0770 3c3e cc86 0e3e b728 663e
000001b0: 4cda f03f 1992 0bbf cda2 0d3e 8063 28bd
000001c0: ecde 18bc f58a f73d 7d91 3d3f 1516 71bf
000001d0: 1114 f1bd 19aa 1cbd 6dd5 b3bb 0182 a23c
000001e0: b707 003e 3d7c a3bd 36bc 1dbe 3555 1fbe
000001f0: 77ae 85be ed23 d83e 33a6 63bc baca a83b
00000200: 2d03 8fbd d806 f2bd cabe b13e b780 d13d
00000210: 0607 8cbe c237 113d b6c4 963d 0012 01be
00000220: b20e c5be e6b2 50bd e4a6 8f3d 2422 c03e
0.463153 0.093278944 0.25420848 -0.03187771 -0.7674828 0.16971388 0.6743785 0.42156363
0.018188408 0.2763771 -0.51822084 -0.032001097 -0.12884192 -0.02884025 -0.039035145 -0.03825615
0.03233043 0.25910676 -1.1900052 -0.041214094 0.22752447 0.65564173 0.0056846957 0.7216186
-0.57279843 -0.11137515 0.010321602 -0.10667735 -0.9191538 -0.015485422 -0.82942563 0.46465793
0.0911321 -0.075769655 0.036524985 -0.56791145 0.0015160897 0.11107507 1.2948902 -0.10391069
0.10567044 -0.10798354 -0.8973904 -0.18543144 -0.97083884 0.24156687 0.658636 0.029161004
0.005398969 -0.03543218 0.032594193 0.2621344 0.28296548 -0.67838955 0.09184374 -0.5663192
0.30085993 -0.014250229 0.08598888 -1.6369634 0.54219973 -0.011931319 0.041087538 -0.17324096
-0.06383386 -0.15010649 0.23029086 -0.08762965 0.14030112 0.09332329 -0.5229782 -0.15597437
-0.26280364 0.60513204 0.58140635 0.04910761 -0.021185488 -0.3953792 -0.086625606 -0.36341596
0.24759868 0.19338062 0.15516073 -0.04867446 0.06959637 -0.0945866 -0.05658066 0.04029233
1.0596119 -0.09605241 -0.13638268 0.50864124 0.13284646 0.4440842 -0.6082862 -0.42180496
0.18524452 -0.0023676655 -0.14053072 -0.45187292 0.3381489 0.06410971 -0.06817499 -0.21321489
0.49036428 0.1840211 0.13918608 0.22476469 1.8816619 -0.545198 0.13831635 -0.041110516
-0.0093304925 0.12087051 0.7405012 -0.9417432 -0.117714055 -0.038248155 -0.005488089 0.019837381
0.12502943 -0.07982681 -0.15403828 -0.15559848 -0.2610967 0.4221491 -0.013894605 0.00515112
-0.069830276 -0.118177116 0.34715873 0.102296285 -0.27349108 0.035453565 0.073617384 -0.12604523
-0.38487774 -0.05095186 0.07014254 0.37526047

F1.net.0.bias f4 [20]
00000000: 7614 823f 9b54 073f fa1f 513d 0ad2 92be
00000010: aff0 d8bf d053 083e 5364 2ebf e634 16be
00000020: c6f7 09bf 1fd5 dfbe 4757 5ebf 6b3c 42bf
00000030: 9331 453e a191 8b3f 101c 9f3e bde9 70be
00000040: a885 0f3f 7580 afbe 2304 0c3c 447d 51be
1.0162494 0.5286347 0.051055886 -0.28675872 -1.6948451 0.13313222 -0.6812183 -0.14668617
-0.538937 -0.43717286 -0.86851925 -0.7587344 0.19257192 1.0903817 0.31076097 -0.23526664
0.5606332 -0.34277692 0.008545908 -0.20457941

F1.net.2.weight f4 [2, 20]
00000000: 5edc 1bbf d19c 20bd d1df f1be 677d f03d
00000010: 3587 533e f86c 723e 355b 9bbe d7dc 5f3f
00000020: 7cbb 03be 424f 30ba dcc9 ae3e 90bb f23c
00000030: f180 083f 1fcb 4cbe 65f2 5bbe 8b7f 48be
00000040: 958d 1ebe cf6e 8dbe 031f 463f 069f edbe
00000050: 0ba1 61bd 349c 92bd 9eb8 313e 0661 7b3e
00000060: b0bd 5e3f 73ab 753e 3f93 05bf ffc8 41bd
00000070: c559 e3be 0bdd 1dbc 17b2 ce3e 9faf b23d
00000080: e5cf 6dbe 7cd1 aabe 8a22 ff3d 6fc1 9abe
00000090: b9bc 19bf 2081 e3b9 41d8 03be 26a2 8bbd
-0.6088313 -0.03921205 -0.4724107 0.117426686 0.20657046 0.23674381 -0.30343023 0.8744635
-0.12864488 -0.00067256775 0.3413838 0.029630452 0.5332175 -0.1999936 -0.21479185 -0.19579904
-0.15483697 -0.27623603 0.7739107 -0.46410388 -0.055085223 -0.071587 0.17355582 0.2454873
0.8700819 0.23991184 -0.52177805 -0.047310825 -0.44404426 -0.00963522 0.40370247 0.08724903
-0.23223837 -0.3336295 0.1245776 -0.30225703 -0.6005359 -0.0004339302 -0.12875463 -0.06818037

F1.net.2.bias f4 [2]
00000000: 8cc2 823e 17b2 533e
0.25539052 0.20673405

G1.b_coeff f4 [2, 2, 3]
00000000: 0a35 1a3e 96f6 29be ac99 adbd 19f9 1b3f
00000010: d8cd cb3e 8718 083d 2b9f 8dbe 332d 29bf
00000020: 353d 29bf 87bf 133f fcfe d43e fb2c 583e
0.15059295 -0.16597971 -0.08476576 0.6092697 0.39805484 0.033226516 -0.27660498 -0.66084594
-0.6610902 0.5771412 0.41600788 0.21110909

G1.alpha1 f4 [2, 2, 1]
00000000: 383d ad3e bca0 9e3d a0e4 9fbd 8002 27be
0.3383577 0.077455014 -0.07807279 -0.16309547

G1.alpha2 f4 [2, 2, 1]
00000000: c181 1e3e c9b1 2ebe e0bb b2be 4d77 f2be
0.15479185 -0.17060007 -0.34908962 -0.47356644

F2.net.0.weight f4 [20, 2]
00000000: a96e f5be 64d3 ab3e 95d4 0c3f e656 58bf
00000010: d546 b43e 7b4a 5bbf 772b d2be e208 cdbe
00000020: b37e ddbd 1206 8d3e de2f 193f e137 0bbf
00000030: 5302 edbe 417e 0ebf 79ce 5abf 9f9f 8c3e
00000040: 4c3f 8bbd 6b85 e0be 4c6d f1be 97db eb3e
00000050: 9eeb 4f3f b715 283f b00b ae3e 06bd 97be
00000060: 909f 94be 1d09 973e 82b4 ae3f 5eda 4b3f
00000070: 4401 d9bf 0def 8abf c7d2 60be 84c5 bb3e
00000080: 77b7 a33d ccad 19c0 b39f 193f 5e91 f4be
00000090: 4046 09be 1678 a53e 28fc ff3b 2276 afbe
-0.4793599 0.33559716 0.55011874 -0.84507596 0.3521029 -0.85660523 -0.41048786 -0.4004584
-0.108151816 0.27543694 0.59838665 -0.5438214 -0.46290836 -0.556614 -0.854713 0.2746553
-0.06799182 -0.4385179 -0.471537 0.4606597 0.812189 0.65658134 0.33993292 -0.296364
-0.29027987 0.2949914 1.3648837 0.79630077 -1.6953511 -1.0854203 -0.21955405 0.3667413
0.079939775 -2.4012327 0.60009307 -0.47767156 -0.13405704 0.3231818 0.007812042 -0.34269816

F2.net.0.bias f4 [20]
00000000: 921e e7be 2f67 883f 47b2 213e 61e9 023f
00000010: a4f7 6abe c4cd 7d3e eb62 7dbe a3ef 473e
00000020: ea25 f1be 1eca 873e 45fd 423d b0a2 e0bb
00000030: 9458 ebbd 05a2 38bf bff5 463f aea9 07bf
00000040: 75ad 383f 3ee0 95be bb67 d4bd 73e3 103e
-0.4514051 1.0656489 0.15790664 0.5113736 -0.2294603 0.24785525 -0.24744765 0.19525008
-0.4709924 0.2652139 0.047604818 -0.0068553314 -0.11491504 -0.7212222 0.7771873 -0.52993286
0.72139674 -0.29272646 -0.103713475 0.14149265

F2.net.2.weight f4 [2, 20]
00000000: 3774 aabd 188b 0b3e a943 113d ea8f debd
00000010: 348b a53c e3bc d23d 0872 2e3d ce54 3ebe
00000020: 6a19 3dbe b852 853d 4285 713d 1cd4 8dbc
00000030: 605a 313b 0602 483e 7add 0ebe de1f 583b
00000040: 20aa bf3c d2bd 5bbd 0434 c0ba b1a6 363d
00000050: 18a0 09be 48d2 7cbc baea 023e 39e3 1b3e
00000060: 5e0d e73d fdfa 20bc 02e3 263e d092 18bc
00000070: 4def 06be 822a 54be 2cf5 1c3e 4fcd 103e
00000080: 5a5f b9bd 16fe f53d 8b78 ec3d 074e 523e
00000090: da0a 7e3e 8464 443e ac4e ccbb 941d f1bd
-0.083229475 0.13627279 0.035464916 -0.10867293 0.020207979 0.102899335 0.042589217 -0.18587038
-0.18466726 0.06509918 0.058964975 -0.017313056 0.0027061924 0.19532022 -0.13951674 0.0032977979
0.023396552 -0.053647824 -0.0014663939 0.044592563 -0.13439977 -0.015430994 0.12784854 0.15223397
0.112818465 -0.009825465 0.16297534 -0.009312347 -0.13177224 -0.2071934 0.153279 0.14140819
-0.0905139 0.12011354 0.11546429 0.20537578 0.24808827 0.19178969 -0.0062349644 -0.1177322

F2.net.2.bias f4 [2]
00000000: 93c6 993e 7bca 5dbd
0.30034313 -0.05414818
