models/new_model_test/new_model_test.pt (torch, 4954 bytes, 10 tensors)

F1.net.0.weight f4 [20, 7]
0	0x3e440f1a	0.19146386
1	0x3ec248aa	0.37946063
2	0xbdef2e9f	-0.11678814
3	0xbeb1e0a0	-0.34741688
4	0x3d9e2099	0.07721061
5	0x3d0d6d95	0.034528334
6	0x3e7993b4	0.2437275
7	0x3ed9fa9e	0.42574018
8	0x3dac65f4	0.084178835
9	0x3e677ef6	0.22607026
10	0xbe617510	-0.22017312
11	0xbc7ed135	-0.0155528085
12	0xbeee9146	-0.4659521
13	0xbe22074b	-0.15823095
14	0xbd40524b	-0.04695348
15	0x3d9fe5d2	0.078075066
16	0x3e843c98	0.2582748
17	0x3eb23e3a	0.348131
18	0xbd864bc8	-0.06557423
19	0xbd316afc	-0.04331492
20	0x3ea28c45	0.31747642
21	0x3ecc36cb	0.39885554
22	0xbd1a953e	-0.037739985
23	0x3ebc54b1	0.36783364
24	0x3d1a7897	0.03771266
25	0x3e3f6bf1	0.1869352
26	0x3ee1d120	0.44104862
27	0xbe60617b	-0.21912186
28	0xbeb609eb	-0.35554442
29	0xbe4cfc81	-0.20018198
30	0xbe87a521	-0.2649317
31	0x3ee03b99	0.4379547
32	0xbe6db235	-0.23212512
33	0xbd824ef5	-0.06362716
34	0xbe908e55	-0.2823359
35	0xbef34b33	-0.4751831
36	0xbea58bb8	-0.3233316
37	0x3e50970e	0.20370123
38	0x3e8d276b	0.27569136
39	0x3e27c2ba	0.16382876
40	0x3e00ea5a	0.12589398
41	0xbe7538c1	-0.23947431
42	0x3e5817ed	0.21102877
43	0xbe5aa572	-0.21352175
44	0xbe010bc1	-0.1260214
45	0xbe93f0ad	-0.2889456
46	0x3eaa25ea	0.3323205
47	0x3e0386c1	0.12844373
48	0xbd07ecc2	-0.033184774
49	0xbe58ab68	-0.21159136
50	0x3d66e803	0.056373607
51	0x3e360f85	0.17779358
52	0x3e5a20a6	0.21301517
53	0xbe395dd1	-0.18102194
54	0x3ea0aa21	0.31379798
55	0xbef4cbbf	-0.47811696
56	0x3e507aed	0.20359392
57	0xbe235894	-0.15951759
58	0xbe03e3fd	-0.1287994
59	0xbe9a493a	-0.30133992
60	0x3e58d91c	0.2117657
61	0x3d3fca94	0.046824053
62	0xbe1752b1	-0.14777638
63	0xbc870c20	-0.016485274
64	0x3d9371ee	0.07199465
65	0xbe36a862	-0.1783767
66	0x3dfc02a7	0.123051934
67	0x3e157fc5	0.14599521
68	0x3eaf4ce7	0.3423836
69	0x3ec96488	0.39334512
70	0xbee41357	-0.44546005
71	0xbe8a48eb	-0.27008757
72	0xbbb91261	-0.005647943
73	0x3ed5895c	0.4170636
74	0x3e85a5e5	0.2610313
75	0x3edf68e9	0.43634728
76	0xbd18bdc9	-0.03729037
77	0xbecfab06	-0.40560168
78	0xbd28f970	-0.041253507
79	0xbea0743e	-0.31338686
80	0xbe771f29	-0.2413298
81	0x3ed4e452	0.41580445
82	0x3ecb9429	0.39761475
83	0xbea58ad0	-0.32332468
84	0x3d66b653	0.05632622
85	0xbd4cd400	-0.050006866
86	0xbd9ce90c	-0.07661638
87	0xbe9389eb	-0.2881616
88	0x3cb0a953	0.021565115
89	0xbead4e14	-0.3384863
90	0x3d0898ec	0.033348963
91	0x3e101efb	0.14074318
92	0x3e6e6af9	0.23282994
93	0x3dba38d1	0.09092868
94	0xbecfbf7a	-0.40575773
95	0xbeaf8ab2	-0.34285504
96	0x3e218b8b	0.15775888
97	0x3b97b2e7	0.004629481
98	0xbe22fd9a	-0.15917054
99	0xbda9d5d3	-0.08292737
100	0x3efb8442	0.49124342
101	0x3e1c6443	0.15272622
102	0xbe08fa8d	-0.13376828
103	0xbe492789	-0.19643988
104	0xbe9497ee	-0.29022163
105	0xbdab963d	-0.08378265
106	0xbea390a5	-0.31946293
107	0xbebcb093	-0.36853465
108	0xbe1731d0	-0.14765096
109	0xbe123431	-0.14277722
110	0xbe901c38	-0.2814653
111	0x3d1697b2	0.03676576
112	0xbde7cf70	-0.113188624
113	0x3ede456f	0.4341235
114	0x3ec06da6	0.37583655
115	0xbed95461	-0.42447188
116	0xbda32a3d	-0.07967041
117	0xbdb3b537	-0.08774798
118	0x3dc5a981	0.09651471
119	0x3e97488e	0.29547542
120	0x3ea00a3c	0.31257808
121	0x3e69f497	0.2284721
122	0xbd750ecb	-0.05982856
123	0x3eefb536	0.4681794
124	0xbe71384c	-0.23556632
125	0x3d8f3cc3	0.06994011
126	0xbe050b07	-0.12992488
127	0xbe34867e	-0.1762943
128	0xbe2b8df6	-0.16753373
129	0xbedb4d55	-0.42832437
130	0xbe7d4321	-0.24732639
131	0xbd19a29f	-0.037508603
132	0xbecbe7a1	-0.39825156
133	0x3e30931e	0.17243621
134	0x3edbe601	0.42948917
135	0x3e1ca655	0.15297826
136	0xbd20e669	-0.039282236
137	0x3e853021	0.26013282
138	0x3cf11f9a	0.029434014
139	0x3f0a7fd0	0.54101276

F1.net.0.bias f4 [20]
0	0x3ea4f11e	0.32215208
1	0x3e826c4e	0.25473255
2	0x3ec5bdcb	0.38621363
3	0x3c87e8c0	0.016590476
4	0xbea3c8d7	-0.31989166
5	0xbe30f7f3	-0.17282085
6	0x3e7905e8	0.2431866
7	0x3d0a1ff5	0.033721883
8	0xbe4e6790	-0.20156693
9	0xbe85c056	-0.26123303
10	0xbeb357b8	-0.35027862
11	0xbeaa7110	-0.33289385
12	0xbe07bff4	-0.13256818
13	0x3e3dd1c5	0.18537052
14	0x3e51b84a	0.20480457
15	0xbec06e35	-0.3758408
16	0x3e6ec216	0.23316225
17	0xbe48a43d	-0.19593902
18	0xbe19d879	-0.15023984
19	0xbe00d632	-0.12581709

F1.net.2.weight f4 [2, 20]
0	0xbddd606c	-0.10809407
1	0xbe04b663	-0.129602
2	0xbe55a39a	-0.2086319
3	0xbe588958	-0.21146142
4	0x3e10e3c7	0.1414939
5	0x3de5470d	0.111951925
6	0xbdf5ea8c	-0.12007627
7	0x3e870b9a	0.2637604
8	0xbe429c1e	-0.19004866
9	0xbda5ee7f	-0.0810213
10	0x3e82c42c	0.25540292
11	0x3b991043	0.004671128
12	0x3dec1e64	0.11529234
13	0x3d615d8c	0.055020854
14	0xbd90af9d	-0.070647456
15	0x3e437e0b	0.1909105
16	0xbe01d7ee	-0.12680027
17	0xbe608fea	-0.21929899
18	0x3e97361e	0.29533476
19	0xbebbd005	-0.36682144
20	0xbd09092a	-0.033456005
21	0xbe12bb2f	-0.14329217
22	0x3e46b963	0.19406657
23	0x3e2cd2f9	0.16877355
24	0x3e530990	0.20609117
25	0x3e374dd7	0.17900787
26	0xbd499388	-0.049212962
27	0x3d90d1b6	0.07071249
28	0xbe600dc5	-0.21880253
29	0x3e40ac74	0.18815786
30	0x3e8d1b33	0.27559814
31	0x3e5ab5cb	0.21358411
32	0xbe89ee5f	-0.26939675
33	0xbd97dd3f	-0.07415246
34	0xbdf75949	-0.12077577
35	0xbe1fa615	-0.15590699
36	0xbe6ab6ab	-0.22921245
37	0xb91334b7	-0.0001403865
38	0xbe67cba9	-0.22636284
39	0xbd779005	-0.060440082

F1.net.2.bias f4 [2]
0	0x3ca9f6bd	0.020747537
1	0x3e21fd10	0.15819192

G1.b_coeff f4 [2, 2, 2]
0	0x3d9df5bf	0.07712888
1	0x3d97f201	0.074192055
2	0x3dcc5d00	0.09978676
3	0x3dc303d6	0.09522216
4	0x3ddbaac8	0.10725933
5	0x3de56e92	0.1120273
6	0xbdd5bc81	-0.10436345
7	0xbdce0143	-0.100588344

G1.a_coeff f4 [2, 2, 2]
0	0xbe1f8f6f	-0.1558206
1	0xbe1e1947	-0.1543933
2	0xbdebbdb1	-0.1151079
3	0xbdd0fc2b	-0.10204347
4	0xbde69166	-0.11258201
5	0xbdcf866d	-0.101330616
6	0xbdd29689	-0.102826186
7	0xbdd6cc23	-0.10488155

F2.net.0.weight f4 [20, 2]
0	0x3f1b1306	0.605759
1	0xbf34340a	-0.70391905
2	0x3d59866e	0.053106718
3	0x3f44d08a	0.76880705
4	0x3e7bf162	0.24603799
5	0x3e155ded	0.14586611
6	0xbf45eae8	-0.77311563
7	0x3eca0400	0.39456177
8	0xbf231000	-0.6369629
9	0xbdf9e92c	-0.12202677
10	0xbdd7ad37	-0.10531085
11	0xbe2d84b1	-0.16945149
12	0x3db5ca70	0.088765025
13	0x3efbc560	0.49174023
14	0x3e5129a0	0.20426035
15	0x3f3029d4	0.68813825
16	0x3ea1fe86	0.31639498
17	0xbf02f5c2	-0.51156247
18	0x3ec79079	0.3897741
19	0xbf1c2380	-0.6099167
20	0xbecee167	-0.40406343
21	0x3e0070d7	0.12543045
22	0x3e076b4f	0.13224529
23	0x3f261ed2	0.6489078
24	0xbea14733	-0.31499633
25	0x3dcfcb98	0.10146254
26	0x3f03fd9a	0.5155884
27	0xbf385d5f	-0.72017473
28	0x3f24a4e7	0.6431412
29	0xbf2ce40c	-0.6753547
30	0xbd873dce	-0.06603585
31	0x3b3afa51	0.0028530548
32	0xbeccc797	-0.39996025
33	0xbd0d07c9	-0.034431253
34	0x3ef5bcc5	0.47995582
35	0xbe961bda	-0.29318124
36	0xbe98e0ee	-0.29859108
37	0xbe53c8a1	-0.20682003
38	0xbf4fe11e	-0.81202877
39	0x3eb96b57	0.36214706

F2.net.0.bias f4 [20]
0	0xbea1d04a	-0.31604224
1	0xbefb6f99	-0.4910858
2	0xbed875f5	-0.42277494
3	0x3eda42c2	0.42629057
4	0x3eca05be	0.39457506
5	0x3f05a073	0.5219795
6	0x3e70662a	0.23476472
7	0xbe830e66	-0.25596923
8	0xbe34c1ec	-0.176521
9	0x3e3f3bc4	0.18675143
10	0x3f19b6b7	0.60044426
11	0x3e578d22	0.21049932
12	0xbea05138	-0.31311965
13	0xbeb4558f	-0.35221526
14	0xbf2fd1c0	-0.6867943
15	0x3e2ec373	0.17066745
16	0xbec02f3c	-0.37536037
17	0xbf1c3f3e	-0.61034
18	0x3f199eec	0.6000812
19	0xbedfe0b0	-0.4372611

F2.net.2.weight f4 [2, 20]
0	0xbab660e9	-0.001391438
1	0x3dac8465	0.0842369
2	0x3ce7d743	0.028300887
3	0xbe31dca9	-0.17369331
4	0xbe505063	-0.20343165
5	0x3e20f8b4	0.15719873
6	0x3c803735	0.015651325
7	0x3e530727	0.20608197
8	0xbd4e825b	-0.050417285
9	0x3d45be30	0.04827708
10	0xbd946aa1	-0.072469
11	0xbcf397af	-0.029735414
12	0xbdef032a	-0.11670525
13	0x3dc9abd9	0.098472305
14	0x3dbdae2f	0.092617385
15	0xbcd06024	-0.025436468
16	0xbcfc6d0b	-0.030813714
17	0xbded4c00	-0.115867615
18	0x3e086dbe	0.13323113
19	0xbe175629	-0.14778961
20	0x3deeec4d	0.116661645
21	0xbdbee256	-0.09320514
22	0xbddf588b	-0.1090556
23	0x3cf38267	0.029725267
24	0xbde318e0	-0.11088729
25	0x3d57a45d	0.052646983
26	0x3c276b05	0.010218387
27	0xbe4d75ec	-0.20064515
28	0x3d95833c	0.073004216
29	0x3e059dbf	0.13048457
30	0x3dad46f0	0.08460796
31	0xbd8a255e	-0.067454085
32	0xbe3c2c0c	-0.18376178
33	0xbc18bdff	-0.009322642
34	0x3db39a8f	0.08769714
35	0xbd9cf756	-0.07664363
36	0x3dadac59	0.08480138
37	0x3e1eba40	0.15500736
38	0xbde9f416	-0.11423509
39	0xbbfbf351	-0.0076889177

F2.net.2.bias f4 [2]
0	0x3d931f35	0.07183687
1	0x3c8455ed	0.016154254
