models/new_model_no_r/new_model_no_r.pt (torch, 5022 bytes, 11 tensors)

F1.net.0.weight f4 [20, 4]
0	0x3de75883	0.11296179
1	0x3ee457a6	0.4459812
2	0xbf27b7b6	-0.65514696
3	0xbf8eeee4	-1.1166654
4	0xbca70eea	-0.020392854
5	0x3ee258ca	0.44208366
6	0xbda1bbdd	-0.0789716
7	0xbe074219	-0.13208808
8	0x3e14cd15	0.14531358
9	0x3e9edf35	0.31029668
10	0xbd9ce6c3	-0.07661202
11	0xbed1d2cd	-0.4098114
12	0xbeaa81ff	-0.33302304
13	0xbf44bbac	-0.76848865
14	0x3dfb6cbc	0.12276599
15	0x3ef584d7	0.4795291
16	0x3ed19bd3	0.40939197
17	0x3ec7c50c	0.39017522
18	0xbe4567e7	-0.19277917
19	0xbbabfea9	-0.0052488637
20	0x3ee6663c	0.44999874
21	0x3f3e1745	0.74254256
22	0xbd34b290	-0.044115603
23	0xbed3d516	-0.4137351
24	0xbdcc1616	-0.0996515
25	0x3e9667eb	0.29376158
26	0x3e94ea43	0.29084978
27	0xbef707d3	-0.48248157
28	0xbe1ef690	-0.15523744
29	0xbf08ac32	-0.5338775
30	0x3e43c21d	0.19117017
31	0x3f822bf9	1.0169669
32	0xbe06f784	-0.13180357
33	0x3e14c54f	0.14528392
34	0xbebd3514	-0.36954558
35	0xbf5b5842	-0.85681546
36	0xbdb13dbb	-0.08654352
37	0x3f536091	0.82569224
38	0x3e78cd18	0.24296987
39	0xbea730bf	-0.32654378
40	0xbd3f3666	-0.046682738
41	0x3ec277c6	0.37982005
42	0xbe699418	-0.228104
43	0xbf96814c	-1.1758208
44	0xbef8474e	-0.484919
45	0xbcf8eeca	-0.030387301
46	0x3e9733a6	0.29531592
47	0x3db85834	0.090011984
48	0xbdeae35d	-0.11469147
49	0xbeb5f541	-0.35538676
50	0x3f369706	0.71324193
51	0x3ea507f7	0.3223264
52	0x3e066ba6	0.13127002
53	0x3f017371	0.50566775
54	0x3d8248a2	0.0636151
55	0xbf5e1eb5	-0.86765605
56	0x3d734d8f	0.059400138
57	0xbe70a97e	-0.23502156
58	0xbeb87b4c	-0.36031568
59	0x3d363eab	0.04449336
60	0x3e83e28c	0.2575878
61	0xbe1619f5	-0.1465834
62	0xbd4ca96a	-0.049966253
63	0x3f23709a	0.6384369
64	0x3e852bda	0.2601002
65	0x3eb525a8	0.35380292
66	0xbe4ae6dc	-0.19814628
67	0xbf29be62	-0.66306126
68	0x3eb08040	0.34472847
69	0x3f5cf159	0.8630577
70	0xbf19f72d	-0.60142785
71	0xbf91c122	-1.1387064
72	0xbd09c8d0	-0.033638775
73	0x3d45dc48	0.04830578
74	0x3eb75a5a	0.3581112
75	0x3f403c19	0.750917
76	0xbd8dd528	-0.06925422
77	0xbf23f8f2	-0.64051735
78	0x3cf81e46	0.030287873
79	0x3e82f7cd	0.25579682

F1.net.0.bias f4 [20]
0	0xbeea6c2d	-0.45785657
1	0x3ec48da3	0.3838931
2	0x3ea4526c	0.32094133
3	0xbec2d79a	-0.38055116
4	0x3dacfda1	0.084468134
5	0xbe059985	-0.13046844
6	0xbe0d95d2	-0.13826683
7	0xbd81d743	-0.06339886
8	0x3e008464	0.12550503
9	0xbe916bfc	-0.28402698
10	0xbc8fcf6d	-0.017554963
11	0x3e6e942e	0.23298714
12	0x3ef6d99c	0.48212898
13	0x3d52c4e4	0.0514573
14	0xbec9b9ff	-0.39399716
15	0xbe879327	-0.26479456
16	0x3d890e14	0.06692138
17	0x3c4daeec	0.012553912
18	0xbeaab993	-0.33344707
19	0xbe832c44	-0.2561971

F1.net.2.weight f4 [2, 20]
0	0x3ed4050e	0.41410106
1	0x3dd423fc	0.10358426
2	0xbdff8e37	-0.12478297
3	0xbdc142ac	-0.09436545
4	0xbda2ce9c	-0.07949564
5	0x3e00cfe1	0.125793
6	0xbced72f2	-0.028985474
7	0xbe583556	-0.21114096
8	0x3e1a1fa6	0.15051135
9	0x3d1197f3	0.0355453
10	0x3e86ef81	0.26354602
11	0xbd1952fc	-0.037432656
12	0xbec0f105	-0.37683883
13	0x3e302dc7	0.17204963
14	0x3e78b792	0.24288777
15	0xbe05e084	-0.13073927
16	0x3b9fb1f9	0.004873511
17	0x3f39e44b	0.7261397
18	0xbb6092ec	-0.003426726
19	0x3d2b69ff	0.041849133
20	0xbdaeb1f2	-0.08530034
21	0xbc1206c6	-0.008912748
22	0xbe2a625d	-0.16639085
23	0x3e5249ac	0.20535916
24	0xbe909de3	-0.28245458
25	0xbedc3b9d	-0.4301423
26	0xbe773229	-0.24140228
27	0x3e993c3c	0.29928768
28	0xbe1e33e8	-0.15449488
29	0xbe93ea97	-0.28889915
30	0xbf1b2b93	-0.60613364
31	0x3dd97ded	0.106197216
32	0x3be94eac	0.007119974
33	0xbeaf381d	-0.342225
34	0x3e068751	0.13137557
35	0x3d8e0bf8	0.069358766
36	0xbeb6e128	-0.35718656
37	0xbfa2b09d	-1.2710148
38	0x3d931aec	0.07182869
39	0x3e5e55fa	0.21712485

F1.net.2.bias f4 [2]
0	0x3e21deb8	0.15807617
1	0x3e09c9ea	0.1345593

G1.b_coeff f4 [2, 2, 3]
0	0x3e02ac65	0.12761076
1	0x3d6408f7	0.055672612
2	0x3bdfac6d	0.0068259747
3	0x3e4f704a	0.20257679
4	0x3cb1b873	0.021694398
5	0xbf04cf75	-0.51879054
6	0x3e009d40	0.12559986
7	0x3d9d51f4	0.07681647
8	0xbd6e78d1	-0.05822069
9	0x3e372bc6	0.17887792
10	0x3ecad6d6	0.39617032
11	0x3f0860c3	0.53272647

G1.alpha1 f4 [2, 2, 1]
0	0xbd634e56	-0.05549463
1	0xbf857a7e	-1.0428007
2	0xbeb520c3	-0.35376558
3	0xbf58d803	-0.8470461

G1.alpha2 f4 [2, 2, 1]
0	0xbeed3e57	-0.46336624
1	0x3f09f9a0	0.5389652
2	0xbe5f0517	-0.21779285
3	0xbd097a7f	-0.033564087

F2.net.0.weight f4 [20, 2]
0	0x3e9c772c	0.3055967
1	0x3eb72130	0.35767508
2	0x3ed009bf	0.40632436
3	0xbdc0de28	-0.09417373
4	0xbf2e3757	-0.6805319
5	0xbf35b4af	-0.70978826
6	0xbee1c6ba	-0.4409693
7	0x3f23eed3	0.6403629
8	0x3f742a17	0.95376724
9	0x3d155c71	0.036465112
10	0xbe888cd5	-0.26669946
11	0x3d94afaa	0.07260068
12	0xbf37944c	-0.7171066
13	0xbed3f110	-0.41394854
14	0xbe7e6407	-0.24842845
15	0x3e2e4748	0.17019379
16	0xbec1706a	-0.37781078
17	0x3e9f39de	0.31098837
18	0x3ef62514	0.48075163
19	0x3ed73731	0.42034295
20	0xbf5c5775	-0.8607095
21	0xbf37636a	-0.7163607
22	0xc01315f1	-2.2982142
23	0x3f438ba0	0.76384926
24	0xbc83d72d	-0.016093815
25	0x3f59c800	0.850708
26	0x3e5d31c3	0.21601014
27	0x3e44ac37	0.1920632
28	0xbeab6619	-0.33476332
29	0x3df8e3f9	0.12152857
30	0x3f8870e3	1.065945
31	0xbeca530c	-0.39516485
32	0x3e148f6a	0.14507833
33	0x3e5531d6	0.20819792
34	0xbf6e80f9	-0.93165547
35	0xbca1b63e	-0.01974022
36	0x3fb20e27	1.3910569
37	0xbf2fca65	-0.68668205
38	0x3ec9182b	0.3927625
39	0x3ee8ad32	0.45444638

F2.net.0.bias f4 [20]
0	0x3e550d3a	0.20805827
1	0x3c9adfcb	0.01890554
2	0xbf1af06b	-0.605231
3	0x3e9c0df8	0.30479407
4	0xbee88ad2	-0.45418411
5	0xbe7f9265	-0.24958189
6	0xbea25e26	-0.31712455
7	0xbe06e90f	-0.13174842
8	0xbd6728e6	-0.05643549
9	0x3f242e87	0.64133495
10	0x3e25ab9b	0.16178744
11	0x3f56d9e0	0.839262
12	0x3ecefbfa	0.40426618
13	0xbefa4f29	-0.4888852
14	0x3e8928ab	0.2678884
15	0xbf03dd6c	-0.5150974
16	0xbeb504db	-0.35355267
17	0x3e3347dc	0.17507881
18	0x3e4836c9	0.19552149
19	0x3f18bdb0	0.5966444

F2.net.2.weight f4 [2, 20]
0	0xbd493bea	-0.049129404
1	0xbcdae030	-0.026718229
2	0x3dc9928a	0.09842403
3	0xbe2e6b26	-0.17033061
4	0x3dad3051	0.08456481
5	0xbe727f02	-0.23681262
6	0x3c5deb4f	0.0135448715
7	0xbdc8ba61	-0.09801174
8	0xbe65ef60	-0.22454596
9	0x3d833670	0.064068675
10	0x3e87edc6	0.26548594
11	0xbd1064ac	-0.03525226
12	0xbdd83f09	-0.10558898
13	0xbe1caf73	-0.15301304
14	0xbe1b7375	-0.15180762
15	0x3d317a17	0.043329325
16	0xbe33d045	-0.17559917
17	0xbd0d8fe9	-0.03456107
18	0xbde62e7c	-0.11239335
19	0x3e1db374	0.15400487
20	0xbcae13ff	-0.02124977
21	0xbdb013ab	-0.08597501
22	0x3e4b33ac	0.1984393
23	0xbdaa6b86	-0.0832129
24	0xbda9c64b	-0.082897745
25	0x3de68423	0.11255672
26	0x3eb5f59a	0.35538942
27	0x3dabad82	0.08382703
28	0xbd90b2e5	-0.070653714
29	0xbe444397	-0.19166408
30	0xbe98defa	-0.29857618
31	0x3e638112	0.22217205
32	0xbe43e354	-0.19129688
33	0xbe29b03e	-0.16571137
34	0x3e408b55	0.18803151
35	0xbe369007	-0.1782838
36	0x3bf61088	0.007509295
37	0x3e336f62	0.17522958
38	0x3db7cd75	0.08974735
39	0xbe7bc80e	-0.24588034

F2.net.2.bias f4 [2]
0	0xbdf7297f	-0.120684616
1	0x3e10fe5c	0.1415953
