models/model_full/model_full.pt (torch, 5090 bytes, 11 tensors)

F1.net.0.weight f4 [20, 5]
-0.6302007 0.31530413 0.53543425 -0.23406155 -0.13505027 -0.93830246 -0.4305168 -0.055646162
-0.0015719174 -0.0031203593 -0.97111934 -0.5037972 0.59093916 -0.091257595 -0.020712988 1.1777147
0.079727896 2.0946982 -0.14155176 0.0071487282 0.061495945 1.2379314 0.045877744 0.06264337
-0.0064179637 0.36839724 1.1750007 -2.336734 -0.050771333 -0.0043841703 -1.4353217 0.17239337
0.16784464 0.30398855 -0.008325832 -1.1771207 0.21096489 0.42377153 0.1300762 0.08070142
-0.2422738 -0.4248966 -1.9707812 -0.24901247 -0.26817116 -1.057236 0.7022482 -0.3903344
-0.1518087 -0.02368906 0.81145257 0.48342174 -0.42021954 0.0098488545 0.042473584 1.2309717
0.26684067 -0.53798455 -0.118074454 -0.06221074 -0.07034606 1.0381194 0.28256232 0.024369385
0.054803044 -0.04133745 -0.74255365 -7.106504 0.40536612 2.3101888 -0.21184218 -0.70071983
-0.10400527 0.17817812 0.13135336 1.2130702 0.21523672 0.36001486 -0.04156224 0.015017561
-0.9510418 0.15997279 0.25510517 -0.17199127 0.0056755613 0.30694368 -0.26974222 0.23514469
0.18304153 -0.21672118 0.7293434 0.1564102 0.45927066 0.12491977 -0.18974452 0.2091491
0.02971837 1.6814902 -0.3998195 -0.18780206
00000000: d554 21bf 8b6f a13e 3812 093f d5ad 6fbe
00000010: 9e4a 0abe 9734 70bf b36c dcbe 3bed 63bd
00000020: cc08 ceba f17e 4cbb 479b 78bf daf8 00bf
00000030: ca47 173f 43e5 babd 49ae a9bc 5bbf 963f
00000040: 6148 a33d 890f 0640 f2f2 10be e13f ea3b
00000050: 2ce3 7b3d 8974 9e3f 4dea 3b3d 2b4b 803d
00000060: c84d d2bb 909e bc3e 6c66 963f 0d8d 15c0
00000070: 9af5 4fbd 16a9 8fbb 9fb8 b7bf e387 303e
00000080: 77df 2b3e 63a4 9b3e 1269 08bc e4ab 96bf
00000090: 2e07 583e 95f8 d83e b232 053e c946 a53d
000000a0: 9f16 78be 0c8c d9be 8f42 fcbf 20fd 7ebe
000000b0: bb4d 89be 8253 87bf 8ac6 333f e9d9 c7be
000000c0: bd73 1bbe 8f0f c2bc 5bbb 4f3f 0e83 f73e
000000d0: 0427 d7be 175d 213c c8f8 2d3d 7b90 9d3f
000000e0: 579f 883e 5bb9 09bf 05d1 f1bd b0d0 7ebd
000000f0: 9811 90bd 19e1 843f 02ac 903e 4ea2 c73c
00000100: 2879 603d 7551 29bd ff17 3ebf 7b68 e3c0
00000110: 268c cf3e 22da 1340 28ed 58be 6062 33bf
00000120: b700 d5bd 5374 363e 7f81 063e e245 9b3f
00000130: 0467 5c3e de53 b83e 2b3d 2abd 370c 763c
00000140: 7a77 73bf e8cf 233e 259d 823e 7b1e 30be
00000150: 0ffa b93b b927 9d3e a71b 8abe c5c9 703e
00000160: 3d6f 3b3e 28ec 5dbe 40b6 3a3f ff29 203e
00000170: 8625 eb3e f0d5 ff3d 634c 42be 2f2b 563e
00000180: f073 f33c 123b d73f 24b5 ccbe 2f4f 40be

F1.net.0.bias f4 [20]
0.43276256 0.19863236 -0.48596555 -0.5578439 -0.49105552 0.111245856 -0.17850523 -0.39989772
0.21250333 0.021172017 -0.081834026 0.45833507 -0.43524632 0.7796474 0.4916763 -0.3204304
-0.36547256 -0.15139568 -0.095978186 -0.0907569
00000000: 0e93 dd3e 4866 4b3e 7ad0 f8be dcce 0ebf
00000010: a16b fbbe ded4 e33d 13ca 36be 65bf ccbe
00000020: 799a 593e f070 ad3c 9998 a7bd e5aa ea3e
00000030: 9bd8 debe f996 473f ffbc fb3e 740f a4be
00000040: 381f bbbe 7807 1bbe 3690 c4bd c1de b9bd

F1.net.2.weight f4 [2, 20]
-0.019403698 -0.1623092 -0.17897312 0.15340474 -0.24497138 -0.30487418 -0.22428204 -0.1436668
-0.10378951 -0.43560904 0.10420665 0.15253884 -0.17204921 -0.60333806 0.15829949 0.24807185
-0.1813398 0.012612232 0.095419794 0.107908554 0.28883377 0.4120632 0.5233708 -0.26948524
-0.35528538 -0.4365202 0.3693186 0.15627539 -0.03599996 0.2774317 -0.5114764 -0.24158178
-0.21797486 0.4023925 0.16189222 -0.54664797 0.3411861 -0.15562704 -0.07304724 -0.013257624
00000000: 81f4 9ebc 6234 26be bb44 37be 2216 1d3e
00000010: c7d9 7abe 7818 9cbe 31aa 65be 641d 13be
00000020: 988f d4bd 2608 dfbe 4c6a d53d 2433 1c3e
00000030: ab2d 30be 5d74 1abf 4319 223e 8c06 7e3e
00000040: 24b1 39be 89a3 4e3c 746b c33d 29ff dc3d
00000050: 05e2 933e f3f9 d23e a1fb 053f f8f9 89be
00000060: f7e7 b5be 937f dfbe 5417 bd3e a806 203e
00000070: b274 13bd 870b 8e3e 1ef0 02bf 3761 77be
00000080: cd34 5fbe 6406 ce3e 13c7 253e 1ff1 0bbf
00000090: f2af ae3e b25c 1fbe cb99 95bd 8136 59bc

F1.net.2.bias f4 [2]
0.077050634 -0.09347476
00000000: b9cc 9d3d b26f bfbd

G1.b_coeff f4 [2, 2, 3]
-0.018682033 -0.043800756 -0.017762115 -0.35895398 -0.123937905 -0.044274192 -0.13114722 0.085184656
0.3226964 0.09065804 0.09975797 0.12491799
00000000: 100b 99bc 6c68 33bd db81 91bc d1c8 b7be
00000010: 28d3 fdbd db58 35bd 754b 06be 4b75 ae3d
00000020: 7638 a53e ecaa b93d e84d cc3d 01d5 ff3d

G1.alpha1 f4 [2, 2, 1]
-0.16824353 0.051974192 0.0022047146 0.049027238
00000000: 0848 2cbe e4e2 543d f97c 103b c9d0 483d

G1.alpha2 f4 [2, 2, 1]
-0.104577094 -0.06425853 -0.72876114 0.04248564
00000000: 842c d6bd fa99 83bd 1790 3abf 6c05 2e3d

F2.net.0.weight f4 [20, 2]
-0.5863544 -0.4661398 -0.050789177 0.34232923 0.029511362 0.2665121 -0.19826044 0.19371662
-0.22439386 -0.17489344 0.511397 0.19844817 0.216944 0.14966068 -0.3630933 -0.26101133
0.20772026 -0.63554835 -0.10645684 0.582781 0.5119368 -0.04787523 -0.44824746 0.35120293
-0.092778884 -0.12382751 -0.073217355 -0.090602845 0.25204718 0.88594335 -0.11717828 0.5297737
0.40726033 -0.082043834 0.2347177 -0.5068808 -0.0990346 0.15023959 0.42305014 1.223926
00000000: 521b 16bf e0a9 eebe 5008 50bd c745 af3e
00000010: d0c1 f13c 4674 883e c904 4bbe a65d 463e
00000020: 81c7 65be 4417 33be eaea 023f ff35 4b3e
00000030: 9126 5e3e a640 193e 5de7 b9be 47a3 85be
00000040: 9fb4 543e 4cb3 22bf 0b06 dabd 2331 153f
00000050: 4a0e 033f d118 44bd b180 e5be dfd0 b33e
00000060: db02 bebd 4799 fdbd fbf2 95bd fc8d b9bd
00000070: 540c 813e 2fcd 623f 2bfb efbd 409f 073f
00000080: 6d84 d03e 9906 a8bd d659 703e f1c2 01bf
00000090: a7d2 cabd 68d8 193e 079a d83e 9ba9 9c3f

F2.net.0.bias f4 [20]
-0.15743133 0.032890297 0.32343122 -0.73740447 0.39946067 -0.6504588 0.031199576 -0.005413475
-0.41471693 0.021970412 0.48260456 -0.1411468 -0.4459494 -0.30819672 -0.6684684 0.22227208
-0.37012586 -0.35234717 -0.43586683 0.30769277
00000000: ae35 21be fab7 063d c798 a53e 8ac6 3cbf
00000010: 1c86 cc3e 7884 26bf 4196 ff3c 8563 b1bb
00000020: c755 d4be 4bfb b33c f217 f73e c988 10be
00000030: 7b53 e4be f6cb 9dbe bf20 2bbf 4b9b 633e
00000040: 2381 bdbe d966 b4be f029 dfbe e889 9d3e

F2.net.2.weight f4 [3, 20]
0.18800126 0.16902317 0.15232538 -0.14993183 -0.027237242 0.0612798 0.42464566 -0.08836851
-0.15592742 -0.050942488 -0.14312093 -0.020694375 -0.21330564 -0.29752243 0.2195975 -0.10314102
-7.363895e-05 0.022005633 -0.08366045 -0.20193224 -0.108757615 0.0145816 0.012809719 0.10581502
-0.04667012 0.041568372 -0.02773481 -0.020399448 -0.078571275 0.007893839 0.034659907 -0.024813628
-0.038596842 -0.10242511 0.063715085 -0.070195965 0.04925378 -0.031582005 -0.073997684 0.026471118
-0.06661123 -0.081720516 -0.017023146 -0.06836133 -0.026787153 0.076540396 0.037068754 -0.040122095
-0.09106172 -0.042974457 0.031486645 -0.012312381 0.11541403 0.16777237 -0.060800474 -0.025345188
0.06588775 0.023347925 0.039126303 0.014408979
00000000: 6783 403e 6914 2d3e 2ffb 1b3e bb87 19be
00000010: a320 dfbc 8700 7b3d 286b d93e 8dfa b4bd
00000020: 70ab 1fbe 12a9 50bd 4b8e 12be 4087 a9bc
00000030: cb6c 5abe dc54 98be 2bde 603e 993b d3bd
00000040: 9c6e 9ab8 2845 b43c 2c56 abbd 53c7 4ebe
00000050: 50bc debd aae7 6e3c dbdf 513c 8cb5 d83d
00000060: 2b29 3fbd 9943 2a3d 1d34 e3bc be1c a7bc
00000070: fae9 a0bd 2955 013c 8cf7 0d3d f345 cbbc
00000080: b917 1ebd 42c4 d1bd 0e7d 823d e7c2 8fbd
00000090: 55be 493d 225c 01bd 198c 97bd f5d9 d83c
000000a0: 786b 88bd 165d a7bd 2074 8bbc 0601 8cbd
000000b0: bb70 dbbc 36c1 9c3d 68d5 173d 1157 24bd
000000c0: 917e babd fc05 30bd 24f8 003d deb9 49bc
000000d0: 315e ec3d 85cc 2b3e eb09 79bd b6a0 cfbc
000000e0: 28f0 863d 2644 bf3c e742 203d a313 6c3c

F2.net.2.bias f4 [3]
-0.088512965 0.019423762 0.09281428
00000000: 4946 b5bd 951e 9f3c 6a15 be3d
