models/new_model_test_2/new_model_test_2.pt (torch, 5244 bytes, 11 tensors)

F1.net.0.weight f4 [20, 7]
00000000: 9812 0e3f 7202 663e eaa3 7c3e 7d37 273c
00000010: 2c4b 0e3f 6257 373e 061d 573e f0ce b43e
00000020: eef4 e8b9 f327 1d3e d828 b6bc d399 89be
00000030: efec debd 5d39 ac3e bc77 f3bd 2679 2d3d
00000040: 25d2 3e3e 230a 9fbc 1257 6d3e 542f 26bf
00000050: d219 4fbe bb81 593e c684 80bd 8dbd 393e
00000060: 9f8b 67bd 6b99 c13e 7582 bd3d bc35 74bf
00000070: adaf d8be c399 b4bd ff4a aabe 5143 113f
00000080: c8bc f63e 334f 71be 715e 14bf 4e67 dabe
00000090: b27c 56bd 4e2f 813e 47c5 a33e 4d7c 033f
000000a0: 112e 12bd d583 41bf 390b 3abe da11 81bd
000000b0: 95cb 04bf 2851 67be 5113 c8bd 3ec3 ba3e
000000c0: deff 99bd 39e7 313e 80f4 c83d aa28 103f
000000d0: f879 d9bd a780 d8be 8685 023e f93b 3fbe
000000e0: 910a 3f3e ef92 8cbd 6154 15be f0c8 b9be
000000f0: bb82 cbbe 84e3 183e 8e81 89bd 8bf2 eebd
00000100: 7e95 103c f89f 8ebe 1d90 363d 6ddd d13e
00000110: 4781 8f3d da68 56be 2540 d5be 2d94 e9bd
00000120: c1ec be3c f1fd 403e 8b5e 393f aeef 7e3c
00000130: 9f5d c5be f3d0 64be e1a5 733d 8963 06be
00000140: efaf 4ebe e12d 553f d120 e83d fd54 7cbf
00000150: 376b 79bd e6f2 ebbd e37c 46be a03e bb3c
00000160: a97f 52be 0e67 6d3e 2d7f 243f 5f8b 093e
00000170: a54a 723d 9b11 ad3d a943 c9be aef1 fdbe
00000180: 1632 f03e 6818 363f 68a3 f8bd 7b0a 0ebd
00000190: 726d 073f e2db 193e a616 f6be cf09 acbd
000001a0: eb82 34bc defd 02be 8032 b5bd 004a d3be
000001b0: a8c0 273d 0d73 16be 6b0a 5c3e 1128 773f
000001c0: c04a 54be ec11 a53d 333c 903e 3b2f 01bf
000001d0: 33ec e5be 1638 223d c75a 133f 0f75 1dbe
000001e0: f103 99bd 3711 62be b288 cd3d a485 2d3e
000001f0: 7e3e d6be 4587 99bf 85ec 0e3d d663 a8bd
00000200: e3ee 31bb f077 28be 26a7 7dbe c7e9 f73e
00000210: 6028 de3e c8c1 9dbc 4ebd 153e f293 1ebd
00000220: 6b1a 91be 984f debe 585d 6cbd 5c9a c13e
0.5549712 0.2246187 0.24671903 0.0102061005 0.55583453 0.17904428 0.21007165 0.3531413
-0.00044432975 0.1534727 -0.022236273 -0.2687517 -0.10885035 0.33637515 -0.11888072 0.042351864
0.18634851 -0.019414013 0.23177746 -0.64915967 -0.20224693 0.21240894 -0.062753245 0.18138714
-0.056529637 0.3781236 0.09253398 -0.9539449 -0.4232153 -0.0881839 -0.33260342 0.5674334
0.48190904 -0.23565368 -0.57956606 -0.4265694 -0.052365012 0.25231403 0.31986448 0.5136154
-0.035688464 -0.75591785 -0.18168344 -0.06302233 -0.5187314 -0.22589552 -0.09769309 0.36477083
-0.07519506 0.1737336 0.0981226 0.5631205 -0.10618967 -0.42285654 0.12746248 -0.18675222
0.18656375 -0.06863963 -0.14582969 -0.36286116 -0.39748177 0.1493054 -0.06714164 -0.11667355
0.008824704 -0.2785642 0.04457103 0.40989247 0.070070796 -0.20938435 -0.416505 -0.114052154
0.023306252 0.18846871 0.72409886 0.015560074 -0.3854799 -0.22345333 0.059484366 -0.13123907
-0.20184301 0.8327313 0.11334384 -0.9856718 -0.060893264 -0.115209386 -0.19383578 0.02285701
-0.20556511 0.23183843 0.64256555 0.13432072 0.059153218 0.084506236 -0.39309433 -0.4959845
0.46913213 0.7113099 -0.12140542 -0.034677964 0.52901375 0.15025285 -0.48064154 -0.08400308
-0.011017541 -0.12792155 -0.08847523 -0.41267395 0.040955216 -0.14692326 0.21488349 0.9654551
-0.2073164 0.08060059 0.28170928 -0.5046269 -0.44906768 0.03960427 0.5756039 -0.15376686
-0.07471455 -0.2207688 0.10035838 0.16945511 -0.41844553 -1.1994406 0.03489353 -0.08222167
-0.0027150444 -0.16452003 -0.24770793 0.48420545 0.4339018 -0.019257441 0.14622995 -0.03871531
-0.28340468 -0.434201 -0.057706207 0.3781308

F1.net.0.bias f4 [20]
00000000: a640 8a3e 2979 9f3e 53e0 b43e c3b8 453e
00000010: b90f 1dbf d44e 47be ce19 fabe 292f 4a3e
00000020: a936 98be ee45 c0be f76b ffbe 89f5 38bf
00000030: d9f7 afbd ac9d e23e 28ca bc3e 5481 0fbf
00000040: f61f 903e a898 42bf 96e0 27be d5dd 74be
0.27002448 0.31147125 0.35327396 0.19308762 -0.61352116 -0.19463664 -0.48847812 0.19744553
-0.29729202 -0.37553352 -0.49887058 -0.72249657 -0.08592195 0.4426092 0.36872983 -0.56056714
0.28149384 -0.76014185 -0.16394266 -0.23912747

F1.net.2.weight f4 [2, 20]
00000000: d2ba 51be 8583 06be 9bdd 35bc 3f07 493c
00000010: f43e d3be 4001 163e b21e a43e 2ea8 1f3f
00000020: 8775 e9bd 08c5 ed3d 5177 923e e51a 80be
00000030: b6b5 97bd a5d9 933d 7cc4 dbbe bfe9 943e
00000040: 58cc 7cbd 607a adbe 6ec9 7cbd 5fa2 8bbd
00000050: d774 adbc 30c9 c0bd a8c7 803e c047 e83e
00000060: d9f8 3a3e f5f4 a83e 4d4c d4be f67d a2bd
00000070: c018 89be cdd0 1b3e 57db 9a3e 0128 aa3e
00000080: 8970 aebe 0a05 09be edfa 0abe 3680 89be
00000090: c871 93be e423 e63d 99b3 b1be 62a0 27be
-0.20481423 -0.13136108 -0.011100198 0.012269794 -0.41258967 0.14648914 0.3205467 0.62365997
-0.1139937 0.11609846 0.28606656 -0.2502052 -0.074077055 0.07219247 -0.42923343 0.29084584
-0.061718315 -0.33882427 -0.061715536 -0.06818079 -0.021173878 -0.094133735 0.25152326 0.4536724
0.1825899 0.32999387 -0.41464463 -0.079341814 -0.26776695 0.1521637 0.30245468 0.33233646
-0.34070233 -0.13380828 -0.13572283 -0.2685563 -0.28797746 0.11237314 -0.34707335 -0.16369775

F1.net.2.bias f4 [2]
00000000: 98c0 d43c 36bc 4a3e
0.025970742 0.1979836

G1.b_coeff f4 [2, 2, 3]
00000000: b8a1 eb3e 4cd3 523e a770 da3d 36fd 053c
00000010: 1334 a23e 2a28 273f f185 d93b dcd4 c53d
00000020: b85d 933d 515b 4a3d 2ac4 b93e 150f 353f
0.4602182 0.20588416 0.10666018 0.008178046 0.31680354 0.6529566 0.0066382815 0.0965974
0.0719561 0.049403492 0.36282474 0.7072614

G1.alpha1 f4 [2, 2, 1]
00000000: c04a 48bd d70f 24bf 2962 9ebd b6e7 5cbf
-0.048899412 -0.6408667 -0.07733566 -0.8629106

G1.alpha2 f4 [2, 2, 1]
00000000: 8a61 1a3d 85fb 8d3e eda2 9b3d 13cd 8a3b
0.037690677 0.27730957 0.07599435 0.0042358725

F2.net.0.weight f4 [20, 2]
00000000: 95ea 92be 52f0 023e a4c5 413f ddc7 3abf
00000010: 93e3 683f 607c 33bf aa61 ce3d 05e6 69bf
00000020: b571 57be 42e2 edbd a971 393f 02b4 96be
00000030: 1503 8abe 7abd 90be 3af8 86bf 7821 ea3e
00000040: c599 043e d004 35bf 683f 81bf f53c 7b3e
00000050: 4e64 27bf ba30 e83f 3e84 1a3f cc0d babe
00000060: 71b2 b0be 8f37 103f adf3 b93f db3b a63c
00000070: f45d a5be e29a 59bf 46ac 9abf ed1c c5be
00000080: 8070 eebe ffcd 83bf ffa4 9b3f 1fd0 9abe
00000090: c2a0 31be 03d8 3e3f 589c acbd 1828 21be
-0.28694597 0.12786987 0.756922 -0.7296122 0.9097225 -0.70111656 0.10077222 -0.91366607
-0.2103947 -0.11615421 0.72439057 -0.2943421 -0.26955476 -0.2826956 -1.0544503 0.4572866
0.12949283 -0.7071047 -1.0097475 0.24534972 -0.6538743 1.813987 0.60358036 -0.3633865
-0.3451114 0.56334776 1.4527489 0.020292213 -0.32298243 -0.8500196 -1.2083824 -0.3849863
-0.46570206 -1.029724 1.2159728 -0.3023691 -0.1734648 0.7454836 -0.08428258 -0.15737951

F2.net.0.bias f4 [20]
00000000: ba5f 04bf 05c2 0a3f ac67 023e fd72 0f3f
00000010: effb 97be c9e8 2d3e a2b3 57be 663e 153d
00000020: 18b5 c4be 6888 9a3e 97ce 733e 64ab 70bd
00000030: 4939 febd aa8e 1bbf c833 ff3e ec9e 15bf
00000040: 4ff5 833e f6c9 a0be e0ae 9abe c336 343e
-0.5170857 0.542023 0.1273486 0.56034833 -0.29684398 0.16983332 -0.21064618 0.03643646
-0.38419414 0.30182195 0.23809277 -0.0587572 -0.1241327 -0.60764563 0.49844193 -0.5844562
0.25773093 -0.31404084 -0.30211544 0.17599015

F2.net.2.weight f4 [2, 20]
00000000: cdd5 f5bd 2f9d 5c3c 53bf 30be b2a3 81be
00000010: 6380 a53a 79d5 803d e08e 6b3c 8bc4 933d
00000020: b11b 40be 6f83 083c ac89 6dbd e2e2 67be
00000030: 9d50 843e 7b1a 5b3e 5c12 62be 789d 9cbc
00000040: 43fd 833c e154 71bc c5e8 e03d 21e2 bcba
00000050: 0343 f7bd fff5 633d df6a b83e 1bdc 303e
00000060: 3311 3f3e 8641 7d3d 9a53 303e 4eaf 08bf
00000070: f11e 18be 2f85 a9be 77a6 b23e 14c1 d33e
00000080: c0b8 3dbe 2041 8c3e bf34 ee3d df22 a03e
00000090: 9d6b 4e3e f332 aa3e b0fb 0cbd c3cc b9bd
-0.1200367 0.01346521 -0.17260484 -0.25320202 0.0012626763 0.06290717 0.014377326 0.07215222
-0.18760563 0.008332117 -0.057992622 -0.22645143 0.25842753 0.2139682 -0.22077316 -0.019118056
0.016111976 -0.014729709 0.10981897 -0.0014410653 -0.12073328 0.055654522 0.36019036 0.17271464
0.18658905 0.061830066 0.17219391 -0.53392494 -0.14855553 -0.33109424 0.34892628 0.41358244
-0.18527508 0.27393436 0.11631154 0.31276605 0.20158239 0.33241996 -0.034419715 -0.09072258

F2.net.2.bias f4 [2]
00000000: 6595 443e 7911 7d3d
0.19197614 0.06178424
