models/new_model_no_r_2/new_model_no_r_2.pt (torch, 5052 bytes, 11 tensors)

F1.net.0.weight f4 [20, 4]
0.5537513 0.24232788 -0.6188955 -1.5150833 0.082302436 1.0770781 -0.39148462 -0.06721986
0.019642223 0.24435256 -0.06205389 -0.5868951 -0.47038764 -0.95419514 0.23115921 0.3849128
0.3813247 0.40924668 -0.27010748 0.0022088469 0.41247886 0.76598954 -0.11319922 -0.4210974
-0.15791023 0.3599423 0.30475596 -0.492228 -0.24385631 -0.5932614 0.17767225 1.0023106
-0.0749349 0.117433436 -0.41228268 -0.8840996 -0.1564374 0.9856414 0.2733362 -0.38849786
-0.03566809 0.43427247 -0.21482807 -1.1906787 -0.71334773 -0.12493434 0.337044 -0.021586172
-0.45282093 -0.07788258 0.7564936 0.49849606 0.19567181 0.5466902 0.051270362 -0.8706568
0.30193615 -0.13992937 -0.33257213 0.19014154 0.096733965 -0.039710842 -0.0982781 0.6957651
0.25099668 0.39671317 -0.20477378 -0.68665874 0.41715363 0.90232986 -0.6232388 -1.1291871
-0.19893846 0.11299778 0.18123747 0.9328211 -0.056213364 -0.6026987 0.024149047 0.31289166
00000000: a5c2 0d3f cd24 783e ef6f 1ebf 40ee c1bf
00000010: 2e8e a83d b2dd 893f ac70 c8be 91aa 89bd
00000020: bae8 a03c 8f37 7a3e 382c 7ebd c23e 16bf
00000030: a6d6 f0be 2246 74bf 00b5 6c3e 4a13 c53e
00000040: fe3c c33e c888 d13e 874b 8abe 4dc2 103b
00000050: 6e30 d33e e417 443f fed4 e7bd 149a d7be
00000060: 38b3 21be 5b4a b83e f908 9c3e 4f05 fcbe
00000070: 78b5 79be fbdf 17bf b7ef 353e b74b 803f
00000080: 7877 99bd f180 f03d b716 d3be 5a54 62bf
00000090: 2031 20be ff52 7c3f b9f2 8b3e 31e9 c6be
000000a0: b418 12bd f658 de3e e4fb 5bbe 2968 98bf
000000b0: f59d 36bf 93dd ffbd 0891 ac3e 7cd5 b0bc
000000c0: 25d8 e7be e780 9fbd 91a9 413f e03a ff3e
000000d0: 315e 483e e4f3 0b3f df00 523d 5de3 5ebf
000000e0: 6097 9a3e a549 0fbe e546 aabe 77b4 423e
000000f0: 751c c63d d6a7 22bd 0746 c9bd a91d 323f
00000100: a382 803e fd1d cb3e 38b0 51be dec8 2fbf
00000110: 2995 d53e 17ff 663f 948c 1fbf 3489 90bf
00000120: 86b6 4bbe 616b e73d 5196 393e 5dcd 6e3f
00000130: fc3f 66bd 764a 1abf 39d4 c53c 5633 a03e

F1.net.0.bias f4 [20]
-0.5050141 0.47519973 0.30840054 -0.4203393 0.086966604 -0.11937528 -0.12968889 -0.06527395
0.105908334 -0.31579328 0.007442518 0.17614615 0.50906205 0.049760893 -0.3701067 -0.2653121
0.0700156 0.025605546 -0.33637488 -0.2382089
00000000: 9b48 01bf 614d f33e ade6 9d3e b636 d7be
00000010: 8c1b b23d 077b f4bd 2acd 04be 59ae 85bd
00000020: 78e6 d83d a8af a1be 5ee0 f33b a85f 343e
00000030: e451 023f 14d2 4b3d a07e bdbe fdd6 87be
00000040: 5764 8f3d b9c2 d13c 5439 acbe 09ed 73be

F1.net.2.weight f4 [2, 20]
0.4972979 0.28513357 -0.11142464 -0.30296728 0.19965968 0.21527027 -0.08367202 -0.19262312
0.08046418 -0.18484123 0.114600204 -0.2585899 -0.35557014 0.19730158 0.24137221 -0.04590856
0.1437604 1.0396765 -0.0040653194 -0.072299585 -0.06763417 -0.0051848325 -0.17239693 0.19063757
-0.26143518 -0.44125813 -0.26232862 0.39614856 -0.19897602 -0.34270304 -0.67270917 0.0972941
0.033690054 -0.42740408 0.13212587 0.104928784 -0.383127 -1.4817674 0.10024831 0.21572205
00000000: d59d fe3e 07fd 913e 9a32 e4bd 871e 9bbe
00000010: 9673 4c3e cf6f 5c3e 3c5c abbd ff3e 45be
00000020: 67ca a43d 0547 3dbe 83b3 ea3d e565 84be
00000030: 4a0d b6be 6d09 4a3e 472a 773e 9d0a 3cbd
00000040: ed35 133e 1f14 853f 5f36 85bb ce11 94bd
00000050: c983 8abd 87e5 a9bb d288 30be 7f36 433e
00000060: d5da 85be 96ec e1be f04f 86be fcd3 ca3e
00000070: 5fc0 4bbe c676 afbe ab36 2cbf 2142 c73d
00000080: 95fe 093d b5d4 dabe 014c 073e e7e4 d63d
00000090: 3929 c4be 8eaa bdbf fc4e cd3d 3ee6 5c3e

F1.net.2.bias f4 [2]
0.16970551 0.13577934
00000000: 48c7 2d3e bd09 0b3e

G1.b_coeff f4 [2, 2, 3]
0.71336323 0.6427955 0.07063536 0.28087845 0.12839004 -0.46956757 0.1966637 0.31869662
0.004074536 0.3150265 0.42443404 0.6989787
00000000: f99e 363f 3f8e 243f 46a9 903d 4dcf 8f3e
00000010: ae78 033e 296b f0be 3562 493e 342c a33e
00000020: af83 853b 274b a13e 6b4f d93e 45f0 323f

G1.alpha1 f4 [2, 2, 1]
-0.5596512 -0.90230197 -0.60006976 -0.8526019
00000000: 4d45 0fbf 43fd 66bf 2c9e 19bf 1e44 5abf

G1.alpha2 f4 [2, 2, 1]
-0.593693 1.0057492 -0.14890252 -0.0653506
00000000: 44fc 17bf 64bc 803f e779 18be 89d6 85bd

F2.net.0.weight f4 [20, 2]
0.4070448 0.36821413 0.38472006 0.0039624884 -0.65479475 -0.89694625 -0.07965885 0.3322965
1.0808786 0.15095119 -0.26677316 0.006678209 -0.721159 -0.52765405 -0.23224384 0.052854702
-0.28004685 0.12298985 0.5098577 0.5193811 -0.59710073 -0.6543897 -2.8331993 1.355968
0.238167 0.70192105 0.2918138 0.13839582 -0.40235528 0.07026911 1.0065845 -0.098900385
0.09561 0.112318374 -0.98822933 -0.13977747 2.6799273 -0.33914703 0.4813273 0.49176452
00000000: 2d68 d03e 9086 bc3e 07fa c43e c3d7 813b
00000010: a1a0 27bf 459e 65bf 2e24 a3bd c422 aa3e
00000020: 3b5a 8a3f f392 1a3e 7e96 88be e1d4 da3b
00000030: e09d 38bf 5614 07bf 54d1 6dbe 2c7e 583d
00000040: 4d62 8fbe 1ae2 fb3d 0986 023f 29f6 043f
00000050: 98db 18bf 1586 27bf 2353 35c0 5c90 ad3f
00000060: 0de2 733e 19b1 333f 9e68 953e a2b7 0d3e
00000070: 8301 cebe 40e9 8f3d c3d7 803f 498c cabd
00000080: 2dcf c33d 2d07 e63d 99fc 7cbf d321 0fbe
00000090: ee83 2b40 aea4 adbe 8870 f63e 8fc8 fb3e

F2.net.0.bias f4 [20]
0.18883742 0.004304302 -0.64176744 0.3342845 -0.48263645 -0.23560712 -0.3024794 -0.101373635
-0.053562492 0.61315835 0.17517555 0.59134597 0.46786425 -0.48184016 0.2708542 -0.6058681
-0.33949387 0.20923455 0.16555792 0.5695385
00000000: 995e 413e 1a0b 8d3b df4a 24bf 5727 ab3e
00000010: 201c f7be fe42 71be 94de 9abe fb9c cfbd
00000020: 5864 5bbd f2f7 1c3f 3861 333e 7362 173f
00000030: e78b ef3e c1b3 f6be 67ad 8a3e 2c1a 1bbf
00000040: 24d2 adbe 9541 563e 0488 293e 46cd 113f

F2.net.2.weight f4 [2, 20]
-0.061397854 0.046843644 0.1373945 -0.13300656 0.06830145 -0.23917341 0.034700673 -0.09993987
-0.17606112 0.032435376 0.11563896 0.0027870508 -0.08389689 -0.15498632 -0.15344998 0.027216649
-0.17580885 -0.01497097 -0.005568394 0.121040724 -0.07540506 -0.12767056 0.25474295 -0.08243418
-0.13788147 0.10703554 0.41383335 0.07012623 -0.08040123 -0.21029702 -0.29868144 0.16504276
-0.20937812 -0.17288272 0.19846828 -0.20497325 -0.0030614955 0.22285523 0.34853458 -0.26558298
00000000: 517c 7bbd 1fdf 3f3d 25b1 0c3e df32 08be
00000010: a1e1 8b3d e0e9 74be 4b22 0e3d 46ad ccbd
00000020: 5e49 34be f5da 043d 1ed4 ec3d f4a6 363b
00000030: 22d2 abbd bcb4 1ebe fe21 1dbe 73f5 de3c
00000040: 3c07 34be cd48 75bc 1377 b6bb 33e4 f73d
00000050: f86d 9abd 12bc 02be ab6d 823e 40d3 a8bd
00000060: cd30 0dbe 7335 db3d f7e1 d33e 579e 8f3d
00000070: 66a9 a4bd 1a58 57be c6ec 98be f800 293e
00000080: 3867 56be 2b08 31be 453b 4b3e 82e4 51be
00000090: 5fa3 48bb 2934 643e 2073 b23e 7efa 87be

F2.net.2.bias f4 [2]
-0.11497357 0.1445496
00000000: 4377 ebbd cf04 143e
