models/new_model_no_r_sens/new_model_no_r_sens.pt (torch, 5097 bytes, 11 tensors)

F1.net.0.weight f4 [20, 4]
0	0x3f31260a	0.6919867
1	0x3fff7722	1.9958231
2	0xbf1589c1	-0.5841332
3	0xc03de1d7	-2.9669092
4	0xbe0e3f74	-0.13891393
5	0x3e7a27d7	0.2442926
6	0xbebd03c1	-0.36916927
7	0x3c1f0d12	0.009707706
8	0x3f526ecd	0.8220032
9	0xbd416c00	-0.047222137
10	0x3eca317f	0.39490888
11	0x3ca15fc5	0.019698987
12	0xbf8a2756	-1.0793254
13	0x3c9db6cb	0.019252202
14	0xbf1a442a	-0.6026026
15	0xbd931926	-0.07182531
16	0xbe4515af	-0.19246553
17	0xbf0e6516	-0.55622995
18	0x3c87558e	0.016520288
19	0x3dca7d16	0.098871395
20	0x3e80e99b	0.25178227
21	0xbcc8506c	-0.02445241
22	0x3e03f951	0.12888075
23	0x3ea4ea8c	0.32210195
24	0xbe9be795	-0.3045012
25	0xbe8af1ea	-0.2713769
26	0x3ecd410d	0.40088692
27	0xbde61f48	-0.11236435
28	0xbe9b0f39	-0.3028505
29	0xbfaec883	-1.3654941
30	0x3ef66c24	0.4812938
31	0x401a223a	2.408339
32	0xbeef6f4d	-0.46764603
33	0xbe1cc268	-0.15308535
34	0xbe878a9a	-0.26472932
35	0xbeb63435	-0.35586706
36	0xbe0770f3	-0.1322668
37	0xbe97a06c	-0.2961458
38	0x3ed28e6d	0.41124287
39	0x3e7a9f18	0.24474752
40	0x3c07bd67	0.008284903
41	0xbebb1698	-0.36540675
42	0x3ea2a7a6	0.3176853
43	0xbebab3cd	-0.36465302
44	0x3d348c73	0.044079255
45	0x3da30c4e	0.07961331
46	0xbd697295	-0.05699404
47	0x3e80f9a6	0.25190467
48	0xbccf04aa	-0.025270779
49	0xbf71684e	-0.9429978
50	0x3f43bf32	0.76463616
51	0x3ffa20e3	1.9541286
52	0x3c85432f	0.016267387
53	0x3f32c967	0.69838566
54	0xbdffed16	-0.124963924
55	0xbe84f51e	-0.2596826
56	0xbdad9f0f	-0.08477604
57	0x3c779e48	0.015113421
58	0xbf1e8c1d	-0.61932546
59	0xbe908783	-0.28228387
60	0xbd6621d4	-0.056184605
61	0xbf0984fc	-0.53718543
62	0x3e9aed17	0.3025901
63	0x3e64b53b	0.22334759
64	0x3f8157c4	1.0104909
65	0x3e9e5c2f	0.30929706
66	0xbc6a4c88	-0.014300473
67	0x3d7dd3f2	0.061969705
68	0x3f6eb9a7	0.93252033
69	0x3cdcfc89	0.026975887
70	0x3b14d0b9	0.0022707416
71	0xbd2e41b4	-0.042543128
72	0x3e929ddd	0.28636065
73	0x3f60d080	0.87818146
74	0x3e69b1f5	0.22821791
75	0x3eb7813b	0.35840783
76	0xbde3372a	-0.11094506
77	0x3df6698a	0.12031849
78	0xbe8bd5f5	-0.27311674
79	0xbe760810	-0.24026513

F1.net.0.bias f4 [20]
0	0xbe204a8d	-0.15653439
1	0x3f12aac5	0.57291824
2	0x3f2e7ae2	0.68156254
3	0xbf63d302	-0.8899385
4	0xbde7ff1d	-0.11327956
5	0x3d1fef48	0.039046556
6	0xbe5bfafe	-0.21482465
7	0x3e0a7c9b	0.13524096
8	0x3e3b1728	0.18270552
9	0xbe8dad23	-0.27671155
10	0xbc2068de	-0.009790627
11	0x3ea8ab03	0.32942972
12	0x3e6dd30d	0.2322504
13	0x3e3af201	0.1825638
14	0xbf02d95d	-0.5111292
15	0xbedb80d9	-0.4287174
16	0xbe1b16b4	-0.1514538
17	0x3e8df3a1	0.27724937
18	0xbebb11da	-0.36537057
19	0xbea0986a	-0.31366283

F1.net.2.weight f4 [2, 20]
0	0x3f3d1ea4	0.7387488
1	0x3e8580d9	0.26074865
2	0x3e50e6ef	0.20400594
3	0xbeeb0a0e	-0.4590611
4	0xbe66d794	-0.22543174
5	0x3e32a9c7	0.17447577
6	0xbe908ffe	-0.28234857
7	0xbe9082d4	-0.28224814
8	0xbdc676ce	-0.09690629
9	0xbdf38698	-0.11890906
10	0xbdf98349	-0.12183244
11	0x3e2f3f7a	0.17114058
12	0xbe0442fe	-0.1291618
13	0x3ebe01be	0.37110704
14	0x3d96f54d	0.07371006
15	0xbe87e880	-0.2654457
16	0x3f10346a	0.5632998
17	0x3ec3fb81	0.3827782
18	0x3e7f990d	0.24960728
19	0xbdb6a720	-0.08918595
20	0x3fb5bc90	1.419817
21	0x3dc0f006	0.09420781
22	0xbd905679	-0.07047743
23	0x3eb4bffe	0.35302728
24	0xbebb76a1	-0.36613944
25	0xbd803803	-0.062606834
26	0xbe4eb7c8	-0.20187294
27	0xbf492d09	-0.78584343
28	0xbd17b9fa	-0.037042595
29	0xbe6a8ff5	-0.22906478
30	0xbdf902ec	-0.121587604
31	0x3d8fbdcd	0.070186235
32	0xbeeb3009	-0.45935085
33	0x3e8b7bad	0.27242795
34	0x3e472a3b	0.19449703
35	0xbe61390a	-0.21994415
36	0x3e003db4	0.12523538
37	0xbad28689	-0.0016061823
38	0xbd54367a	-0.051809765
39	0x3e1dea80	0.15421486

F1.net.2.bias f4 [2]
0	0x3eb928c6	0.3616392
1	0x3d823249	0.063572474

G1.b_coeff f4 [2, 2, 3]
0	0x3dd96849	0.10615594
1	0x3e768f41	0.24078085
2	0x3eaa9669	0.3331788
3	0xbeb74517	-0.357949
4	0xbe890a5a	-0.2676571
5	0xbdcceb55	-0.100058235
6	0xbe21d684	-0.15804487
7	0xbe4e833a	-0.20167246
8	0xbdcc1027	-0.09964018
9	0x3e51f6b0	0.2050426
10	0x3eadb6b7	0.33928463
11	0x3f3438cd	0.7039917

G1.alpha1 f4 [2, 2, 1]
0	0xbd3ceb79	-0.046123
1	0xbe533bee	-0.2062833
2	0xbe76154a	-0.24031559
3	0xbdc84408	-0.09778601

G1.alpha2 f4 [2, 2, 1]
0	0xbf27a38b	-0.6548392
1	0x3df425de	0.11921285
2	0x3d224d69	0.039624605
3	0xbf4f10c3	-0.8088495

F2.net.0.weight f4 [20, 2]
0	0x3e8ed84e	0.27899402
1	0x3dd27a34	0.10277215
2	0x3f01b355	0.50664264
3	0x3ebf0bb1	0.37313607
4	0x3db22de3	0.087001584
5	0xbe684336	-0.22681889
6	0xbf1397ec	-0.5765369
7	0x3e713bef	0.23558019
8	0x3f472acd	0.77799684
9	0x3f42b7d7	0.7606177
10	0xbf4760d7	-0.7788214
11	0x3db32665	0.087475576
12	0xbf1844b6	-0.59479845
13	0xbf2ee14e	-0.6831254
14	0xbf3200c5	-0.69532424
15	0x3e4b6264	0.19861752
16	0xbefde66d	-0.49589863
17	0x3e33aa99	0.17545547
18	0x3d94fbd2	0.072745934
19	0x3f4784db	0.77937096
20	0xbf01a937	-0.50648826
21	0xbec20744	-0.37896168
22	0xbf810abf	-1.0081404
23	0x3f03af1d	0.51439077
24	0x3aa182e7	0.0012322337
25	0x3f80e2c0	1.0069199
26	0x3e390ba2	0.18070844
27	0xbdc06118	-0.09393519
28	0xbe573f53	-0.2102025
29	0xbea2331a	-0.31679612
30	0x3ebe9957	0.37226364
31	0xbe6f1da6	-0.23351154
32	0xbe47f06c	-0.19525307
33	0x3e26af41	0.16277792
34	0xbf3581e7	-0.7090134
35	0xbee1bd19	-0.44089583
36	0x3f220a7b	0.6329724
37	0xbef98dc3	-0.48740968
38	0x3e4055e4	0.18782765
39	0x3f9c7fb9	1.2226478

F2.net.0.bias f4 [20]
0	0xbd87373b	-0.06602331
1	0xbd26b46f	-0.04069942
2	0xbf100f2e	-0.5627316
3	0x3ec2019f	0.37891862
4	0xbecdb3d6	-0.40176266
5	0xbe8220d4	-0.2541567
6	0xbeb0b182	-0.34510428
7	0xbd36b76a	-0.04460851
8	0xbd7dc60d	-0.061956454
9	0x3eee2adb	0.4651707
10	0x3e31ed56	0.17375693
11	0x3f284a64	0.6573851
12	0x3e8871ed	0.26649418
13	0xbee4f772	-0.44720036
14	0x3e5b1fc1	0.21398832
15	0xbecd0cd8	-0.40048862
16	0xbec51abd	-0.38496962
17	0x3eca5147	0.39515135
18	0x3e81fa80	0.2538643
19	0x3eb9c56a	0.36283427

F2.net.2.weight f4 [2, 20]
0	0x3c0ea329	0.008705893
1	0x3e5d30cf	0.2160065
2	0xbd60987a	-0.054832913
3	0xbdf25180	-0.11831951
4	0x3e9d6baa	0.30746204
5	0xbe165bf6	-0.14683518
6	0xbed284d3	-0.41116962
7	0xbcd0998f	-0.025463847
8	0xbe1d015b	-0.15332548
9	0x3d81b04c	0.06332454
10	0xbdbd11e7	-0.0923193
11	0x3d2079f5	0.039178807
12	0xbdc82073	-0.09771814
13	0x3b4cf0b8	0.003127141
14	0xbdf02ace	-0.11726914
15	0x3cb1be6c	0.021697246
16	0xbdd38e55	-0.10329882
17	0xbd8fa593	-0.07014003
18	0xbde9c6a8	-0.11414844
19	0x3db220fd	0.08697698
20	0xbb8ac700	-0.0042351484
21	0x3e48c9b5	0.19608195
22	0x3e21e2ed	0.15809222
23	0x3dee166a	0.11625369
24	0xbd5e252a	-0.05423466
25	0x3e387b8a	0.18015876
26	0xbe070d4e	-0.13188669
27	0x3e28d277	0.16486536
28	0x3b3af90c	0.002852979
29	0xbdb1e29e	-0.08685802
30	0xbe9ceded	-0.30650273
31	0x3e5642dc	0.20923942
32	0xbe1bcc72	-0.15214708
33	0x3cd81e98	0.026381776
34	0x3dd2c537	0.10291522
35	0xbd7113cd	-0.058856774
36	0x3d781a9b	0.060572248
37	0xbc103edc	-0.008804049
38	0x3cb38f4e	0.021918919
39	0xbec05f51	-0.3757272

F2.net.2.bias f4 [2]
0	0xbe0db64e	-0.13839075
1	0x3d77d165	0.06050243
